data.pth (torch, 8703 bytes, 6 tensors)

l1.weight f4 [8, 110]
000000 df 09 bc 3e 7d ee 92 3e 5a c5 a7 bf a0 d1 84 bf
       0.3672628 0.28697577 -1.3107102 -1.0376472
000010 52 cf 04 c0 74 26 ee bc 08 27 a5 3e 2d 69 12 3f
       -2.0751538 -0.02907107 0.3225634 0.57191736
000020 76 9e 35 bf ca 66 03 3e 97 e8 c4 3e f9 01 ba 3e
       -0.7094492 0.1283218 0.38458702 0.3632963
000030 34 fc ac be de 9b 05 3f af 17 19 bf 4b b4 06 3f
       -0.33786166 0.5219096 -0.59801763 0.52618855
000040 3d 09 f1 3e 2c 90 ce bf 0f 05 9c 3e 19 27 61 be
       0.4707736 -1.6137748 0.3047261 -0.21987571
000050 80 f6 bb bf 85 88 9c bf 46 43 96 bf 46 33 1f bf
       -1.4684601 -1.2229162 -1.173928 -0.6218761
000060 9c 3c c5 3e ec 65 04 bf 2c 71 b8 bf 1f 09 a9 bf
       0.38522804 -0.5171802 -1.4409537 -1.3205909
000070 95 f5 34 be 97 a9 78 3e 52 9c 99 bc 2b f7 30 bf
       -0.17671807 0.24283443 -0.018751297 -0.6912715
000080 fa 1f 32 bd 37 5c 8a bf e4 fc c3 3e 11 6e ed 3f
       -0.043487526 -1.0809392 0.38278878 1.8549215
000090 fc 5a a6 3f 95 d3 9c 3e a4 50 e8 3d 54 22 d4 bf
       1.2996516 0.30630174 0.11343506 -1.6572976
0000a0 02 67 96 3d 35 93 12 3f b1 30 71 3f 5c 60 f0 3e
       0.07343866 0.5725587 0.9421492 0.46948516
0000b0 2e fc 84 be 8f 0f 09 3f 1c c1 b0 3e d8 4b 84 3d
       -0.25973648 0.53539366 0.3452233 0.064597785
0000c0 44 79 be be 2c a7 1a 3f 30 15 16 bf 11 fe 1c 3f
       -0.37201893 0.60411334 -0.5862608 0.61325175
0000d0 b9 36 24 3f 0a 68 38 3f 8f a3 51 3f a0 63 35 3f
       0.64146 0.7203375 0.81890196 0.7085514
0000e0 f1 2f 93 3f 8c c9 33 3f 79 f6 0c 3f 97 65 25 3f
       1.1499006 0.7022941 0.5506359 0.6460814
0000f0 7e 5d 3d 3f c0 79 28 3f 4a b0 cd bf a3 dd c3 3f
       0.7397078 0.65810776 -1.6069424 1.5302013
000100 e0 b5 9c 3e 1e 3c ba 3c ea 10 fe 3e f6 7d bb 3e
       0.3060751 0.022733744 0.4962228 0.36619538
000110 2c b6 c1 3d 5e cc 5f 3e 9f f3 ea be 05 f8 f0 3f
       0.09458575 0.21855304 -0.45888993 1.882569
000120 1f 48 26 bd b9 50 c5 3f 13 78 72 3d 7a 3c 78 3d
       -0.040596124 1.541526 0.059196543 0.06060455
000130 01 4d 0c bf 7c 91 d6 be d8 54 ec bd 06 6d bc be
       -0.54805 -0.4190787 -0.1153962 -0.36801928
000140 a3 a1 98 be 03 d0 b3 bd b4 f3 21 be ad 8d 30 be
       -0.2981082 -0.087799095 -0.15815622 -0.17241545
000150 6a d6 d2 ba cc ce 91 3f ca 3a 24 3f e3 9a bc 3f
       -0.0016085629 1.1391234 0.64152205 1.4734768
000160 6b ef 7a bf cd a8 68 bf 32 58 33 bf ab 8c b2 bd
       -0.9802157 -0.9088257 -0.7005645 -0.087182365
000170 7d 86 21 3e f8 b5 7e 3f 93 70 17 3f dd e8 e0 bd
       0.1577396 0.9949641 0.5915615 -0.10981915
000180 4d 03 ff 3f 96 c8 05 3f de 7c 98 bf 6e aa ed 3d
       1.9922882 0.52259195 -1.1913106 0.116047725
000190 70 ec 58 3e a4 35 85 3e 3b 5d ad bf 06 a6 9e bd
       0.21183944 0.26017487 -1.3544077 -0.0774651
0001a0 ff 17 ca 3e 41 b2 94 bf 4b b2 6a be 1a 6b e6 be
       0.39471433 -1.1616899 -0.22919576 -0.45003587
0001b0 f5 82 ce bf ec eb 00 bf ad 9a 86 be ac 38 52 3e
       -1.6133715 -0.5035999 -0.26289883 0.20529431
0001c0 e2 06 ac 3f cc ad f0 3f 5f 39 14 3f 57 53 ed 3d
       1.34396 1.8803039 0.5790004 0.115881614
0001d0 86 e1 a7 be 5a c7 99 3e 3a b7 32 3f bc 9a cc 3e
       -0.32789248 0.30034906 0.6981083 0.39961803
0001e0 ba 26 4f be fc 04 ab 3e 04 be ad bf fc ef be 3e
       -0.20229617 0.3340224 -1.3573613 0.3729247
0001f0 bf cc 3d 3f ef 90 c9 3e c3 a0 a3 3e 27 4c 6f bf
       0.7414054 0.39368388 0.3195859 -0.93475574
000200 ef 9a 5b bf 43 14 1b 3f 58 3d f0 3f ff df a3 3f
       -0.85783285 0.6057779 1.8768721 1.2802733
000210 8f 6b fd be c1 ff 23 bf 0e 06 fa 3e 77 6d 3a bf
       -0.49496123 -0.64062124 0.48832744 -0.7282328
000220 1a 77 07 3f dc 9f ac bf bc 30 99 3f 9c fd 0f bf
       0.5291611 -1.3486285 1.1967998 -0.5624635
000230 c0 31 34 3f 3a c8 46 3e 4c dd a7 3d a1 2d 7e bf
       0.7038841 0.19412318 0.08196506 -0.99288374
000240 cf 0a 09 3f 71 5d 4e 3e ce b2 57 3f 2d 01 84 3e
       0.5353212 0.20152833 0.8425721 0.25782147
000250 4a 8f 3e 3c 32 27 ac 3e 9c 93 b1 bb 6b af 2e 3f
       0.011630842 0.33623654 -0.0054192077 0.68236417
000260 c0 b3 73 3f b4 09 d7 3e 08 63 20 3f b3 34 05 3f
       0.9519615 0.4199959 0.6265111 0.5203354
000270 8f 7a 2c 3e d6 88 24 3e be 8c 3f bf 0f f0 9e 3e
       0.16843627 0.16067824 -0.7482413 0.31042525
000280 28 d9 29 3f 8f 64 56 3f b7 73 56 3f 95 7d 3a 3f
       0.6634698 0.8374719 0.83770317 0.7284787
000290 33 a0 81 3f d5 d9 4f 3f 52 53 3a be 23 b6 43 3f
       1.0127014 0.8119176 -0.18195847 0.76449794
0002a0 ee 3d 60 3f 62 6b 54 3f 7c 47 4e 3f 00 80 52 3f
       0.875945 0.82976353 0.80577826 0.8222656
0002b0 1a 7e c5 bf fc 63 8a bf 37 c4 17 3f 16 87 7f 3e
       -1.5429108 -1.0811763 0.59283775 0.24953875
0002c0 84 21 07 be 76 a3 5b 3d b3 e3 28 bf 18 00 b6 3d
       -0.13196379 0.053622685 -0.6597244 0.08886737
0002d0 9d 23 29 3e 75 93 f9 3f 40 7f 40 3e c9 99 b6 bf
       0.16517492 1.9498125 0.18798542 -1.4265682
0002e0 ab 01 05 bf ae 2e 4f 3d fe 6e ae bf 8d e0 ad bf
       -0.5195567 0.050581627 -1.3627622 -1.3584152
0002f0 90 81 cb bf 93 e2 2b bf e3 10 23 bf cb 37 bc 3b
       -1.5898914 -0.671426 -0.6369764 0.0057439557
000300 c7 2b 09 3f 7d 07 0d 3f e0 da 83 3d cf 0b aa bf
       0.53582424 0.5508955 0.064382315 -1.3284854
000310 f5 50 8d be cd 1c c9 bf 89 96 ab bf 97 13 c2 bf
       -0.27600828 -1.5711914 -1.3405315 -1.5162228
000320 d1 31 21 bf 33 d9 41 3e 3e 37 05 be 35 85 06 40
       -0.6296664 0.18930511 -0.13009354 2.1018803
000330 7a 2f 24 3f 94 f5 9d be 5f bc 19 40 f2 a8 76 3e
       0.64134943 -0.30851424 2.4021223 0.24087885
000340 e8 5e 44 3e 3a cb 1c 3d 25 7e bb 3e e5 a1 11 3f
       0.19176829 0.03827975 0.36619678 0.56887656
000350 f2 47 8c 3f 54 3a 0d 3e ad b8 18 3f fc ca df 3d
       1.0959456 0.13791782 0.5965679 0.10927388
000360 19 95 cb 3e 2c 97 98 be 89 bd 95 3f a4 37 45 3f
       0.3976219 -0.29802835 1.1698467 0.77038026
000370 1e 7d 64 be 0d bd a1 3e 7f 8a 57 3f 1b f5 8c 3f
       -0.22313353 0.31589547 0.84195703 1.10123
000380 28 b7 72 bf ad a2 32 3e 7d 5e 36 be 04 a0 8a bf
       -0.94810724 0.17444868 -0.17809482 -1.0830083
000390 8d 90 6d be 15 8d c2 be 1b 72 0e bd 34 8b 32 3f
       -0.23199673 -0.37998262 -0.03477679 0.6974366
0003a0 4c 67 27 be 0f c0 b9 3e 6b fb 8b 3f fc 06 42 3f
       -0.16347998 0.36279342 1.0936102 0.7579191
0003b0 3a 24 19 3f e5 65 ab be 04 b6 94 3f 2b 84 4e 3e
       0.598209 -0.33476177 1.1618047 0.20167606
0003c0 7d 5d cd 3f 1e f8 26 3f 0a 61 e3 3f 93 9e 1b bb
       1.6044155 0.65222347 1.7763989 -0.002374564
0003d0 61 80 0f bf 56 ae 55 bf 51 7d 41 bf 53 1c 98 be
       -0.56055266 -0.8346914 -0.7558184 -0.2970911
0003e0 da 33 98 3d 8c 2d 57 3e e1 71 ba bd 77 1b 2a bf
       0.07431765 0.21013469 -0.09103752 -0.6644816
0003f0 e3 eb 8a 3e 66 25 cb 3f 28 2b d3 be 5d f3 80 bf
       0.27133092 1.5870788 -0.41243863 -1.0074269

l1.bias f4 [8]
000000 d0 06 d8 3f d3 50 b6 3f da a5 b8 3f d9 d5 82 3f
       1.6877079 1.4243416 1.4425614 1.0221511
000010 30 10 df 3f 2d 57 b0 3f 92 44 9d 3f d7 07 b3 3f
       1.7426815 1.3776604 1.2286551 1.3986768

l2.weight f4 [8, 8]
000000 47 4e bb 3f 46 0d cd bf ec ba a1 3f 23 e5 31 40
       1.4633263 -1.6019676 1.2635169 2.7796104
000010 a7 eb c7 bf 11 df b2 3f 21 59 34 40 43 0c da 3f
       -1.561879 1.3974324 2.81794 1.7034992
000020 32 ba 5c 3f 72 be 41 40 55 27 38 40 28 27 90 bf
       0.8622161 3.0272489 2.8774006 -1.126195
000030 52 7f c1 be 60 b5 04 3e 71 ed 78 3f 85 db 7d bf
       -0.3779245 0.12959814 0.97237307 -0.99163085
000040 98 f3 28 c0 95 01 89 be d7 69 3f 3e eb 48 05 c0
       -2.6398678 -0.2675902 0.18692718 -2.0825756
000050 81 2e 2c 40 de 5e 70 40 7b 44 e1 3f 6d d3 9a 3f
       2.6903384 3.7557902 1.7599024 1.2095772
000060 0d ee 38 40 26 a2 c3 3f fe cd 01 c0 cc 6c b9 3f
       2.8895295 1.5283859 -2.0281978 1.4486327
000070 ad aa 48 40 51 59 82 bf db e5 b0 bd 28 c0 2b 40
       3.1354172 -1.0183507 -0.086375915 2.6836033
000080 ea 9b 5e 3f 1a c2 4f 40 41 c6 de bd 59 1f 4b 40
       0.86956656 3.246222 -0.10877658 3.1737883
000090 35 1e 71 bf 34 fb 23 40 41 f4 94 3d a3 b5 55 be
       -0.9418672 2.5622072 0.0727315 -0.2087007
0000a0 63 14 00 40 8e b9 28 3f bf 37 66 40 6d 75 e0 3e
       2.0012443 0.65908134 3.5971525 0.4383959
0000b0 e7 5a 4c 3f 41 a6 2d be af 4d f8 bf 3c 79 47 3f
       0.79826206 -0.16957952 -1.9398707 0.77919364
0000c0 fe 47 90 3e 44 d1 65 3e ba 5a 74 3e 14 6c 0e 3f
       0.28179926 0.2244311 0.23862734 0.55633664
0000d0 41 06 f2 bd 57 71 80 be b5 0f 3c 3f 46 99 f8 be
       -0.11817599 -0.2508647 0.7346147 -0.48554438
0000e0 4b 95 ad 3f 98 f3 8e 3f 3c f3 f3 3f 2b b8 fe be
       1.3561186 1.1168089 1.9058604 -0.49749884
0000f0 2b a0 8a 3f 3e 53 8d bd a9 0d 42 40 67 ae 08 c0
       1.0830129 -0.06900643 3.0320837 -2.1356447

l2.bias f4 [8]
000000 9b 5c 8a 3f 3a a6 a9 3f c8 a2 bc 3f c0 79 7d 3f
       1.0809511 1.3253853 1.4737177 0.990139
000010 ae 4e 42 bf 87 93 5f 3f 05 bf bf 3d 43 eb c7 3e
       -0.75901306 0.87334484 0.09362606 0.39046678

l3.weight f4 [31, 8]
000000 4b 15 0f 3f 5e 1b e3 3e 08 9b aa bd 6d b4 34 bf
       0.55891865 0.44356817 -0.08330351 -0.7058781
000010 c8 72 88 c0 8e 89 6a bf af 5b cd 3e a8 ea 2a 3f
       -4.2640114 -0.9161614 0.40109012 0.6676431
000020 59 d6 02 3f 19 81 91 3e 8a e5 42 3f b1 99 a6 bf
       0.5110832 0.28418806 0.761315 -1.3015653
000030 41 9c 32 be 42 ec 97 bf 8f 10 82 3e 63 ef 6f c0
       -0.17442419 -1.1868975 0.25403258 -3.748986
000040 8f 68 6f be cd 1a 09 3f 0a bd 77 3e 52 36 f9 bf
       -0.2337973 0.5355652 0.24193206 -1.9469702
000050 37 81 15 c0 48 cf 54 3f dd eb b5 be d2 f1 6e be
       -2.3360116 0.83128786 -0.35531512 -0.23334435
000060 0c c7 46 bf 09 24 14 bd 7c 88 98 bf be a6 46 3f
       -0.7764747 -0.03616718 -1.1916652 0.7759818
000070 e4 fa 0b c0 36 f9 8b be 22 5c 60 3e 99 6e 3a 3e
       -2.1871881 -0.2733857 0.21910146 0.18206252
000080 f3 9d 06 bd 4f 3a 57 bf 2f a8 76 3f 9b d0 eb bd
       -0.032865476 -0.84073347 0.9635038 -0.11514398
000090 46 1e 77 c0 66 68 9c bf 98 ed 8d 3b 86 83 a4 3e
       -3.8612227 -1.221936 0.004331302 0.32131594
0000a0 6b 18 5a be f9 1b a2 be 12 4f 61 3e 36 79 4d bf
       -0.21298377 -0.31661966 0.22002819 -0.8026308
0000b0 ac 27 e6 bd 1a b7 36 bf 58 5c 8d bf aa bb 98 be
       -0.112380356 -0.7137314 -1.1043806 -0.29830676
0000c0 d5 bd 31 c0 28 d7 96 3e 05 d5 d2 bf 29 9b 0d 3e
       -2.7772114 0.29461026 -1.6471258 0.1382872
0000d0 2c c8 cc bd 6b 07 2a 3f 13 d4 c0 3d b7 d1 35 be
       -0.09999117 0.6641757 0.0941545 -0.17755781
0000e0 d4 c1 fc be 5a 87 11 3f 3a 3a 22 c0 c2 76 0f bf
       -0.4936663 0.56847155 -2.5348039 -0.56040585
0000f0 95 6e 7e be 5c ad d6 be df 7a a1 3d ef cf 28 3f
       -0.24846871 -0.41929138 0.07884764 0.6594228
000100 df 7c 33 3f 45 c3 50 be 29 dc 58 bf 3d a7 af bf
       0.70112413 -0.2038699 -0.8471094 -1.3722912
000110 ea ff ed be da bd bd 3b 6a bb 81 be 13 6f 14 bf
       -0.4648431 0.0057904543 -0.25338298 -0.57981986
000120 cb 24 12 c0 b0 a5 13 3e df 90 1a 3e 38 75 66 bf
       -2.2834957 0.14418674 0.15094326 -0.9002261
000130 5e ef ce 3d 6a 6b a5 3e 19 54 07 bf d0 fc c6 be
       0.101042494 0.32308513 -0.528627 -0.38864756
000140 27 28 0e bf 61 0b 2e be 9e 82 73 bf 23 ae 5e be
       -0.5553002 -0.16996528 -0.9512118 -0.21746115
000150 7f f1 e8 be 28 06 4e 3f b4 0a c5 be a6 66 1e bf
       -0.45496747 0.80478144 -0.38484728 -0.6187538
000160 eb 3c 52 bd 21 bd a9 3e 4e 38 ba bd b4 f1 42 3e
       -0.051327627 0.33152106 -0.090927705 0.19037515
000170 09 49 a7 c0 b8 1c 08 3f 33 bd 27 bf c5 14 ae be
       -5.2276654 0.5316882 -0.6552307 -0.3400022
000180 2b 6d 36 bf ea 65 53 3f 13 dd da be 68 40 15 c0
       -0.7126033 0.82577384 -0.4274679 -2.332056
000190 53 1c 4c be c3 23 5a bf f9 22 82 be 73 9f e4 3e
       -0.1993268 -0.8521082 -0.25417307 0.446529
0001a0 44 48 37 3e 63 d0 67 3e 0c c0 b3 bf 49 04 00 c0
       0.17898661 0.22638087 -1.4042983 -2.0002615
0001b0 38 1c 3a 3f 99 4c c3 bf 8f a4 29 3e 71 5e 24 be
       0.7269931 -1.5257751 0.1656668 -0.16051652
0001c0 e2 b9 b2 bf 5a 05 3e 3e 8c 84 2b 3f 18 44 a7 bf
       -1.3962977 0.18556729 0.66999125 -1.3067656
0001d0 3d 5a 30 bf 15 9c 31 c0 1d 54 67 be 07 98 6c 3f
       -0.6888769 -2.7751515 -0.2259068 0.92419475
0001e0 97 53 5c 3f f6 b7 ae 3e b9 9d 9f 3e a8 ae ff bf
       0.8606505 0.34124726 0.3117502 -1.9975176
0001f0 e2 9d 4e bf 1c 11 85 c0 a4 bd b2 3b e7 3a 38 be
       -0.8070966 -4.1583385 0.005454736 -0.1799122
000200 13 2b b6 bf da 54 3d c0 d8 86 4c 3f f1 bb 37 3e
       -1.4231895 -2.958304 0.79893255 0.17942788
000210 c7 3f 7a 3d fe d0 b6 bd 07 19 29 bd db 74 54 c0
       0.06109598 -0.08926581 -0.041283634 -3.3196323
000220 c1 bf 1e be dc 0c 55 bf d4 1f f3 bf 82 5c e8 3e
       -0.15502836 -0.83222747 -1.8994088 0.45383078
000230 ba 73 29 3f 02 2d ba bd ec 79 8e be 25 9e 54 c0
       0.6619221 -0.09090616 -0.27827394 -3.3221524
000240 04 ef 18 c0 cd 51 42 3f 29 40 17 be ab 6b 8a be
       -2.3895884 0.7590607 -0.14770569 -0.2703527
000250 65 36 27 c0 48 c6 a3 3e 63 50 b9 bd b0 df 4b 3f
       -2.612695 0.31987214 -0.09048536 0.79638195
000260 36 44 ae bc b3 8c b8 be a6 30 92 bf e0 ca 1f 3f
       -0.02127276 -0.36044845 -1.1421096 0.6241894
000270 bf b4 0b 3e 96 67 0b c0 f0 78 c3 bd 63 9e 06 bf
       0.13643168 -2.1781974 -0.09544551 -0.5258543
000280 74 3e b6 be ed ff e3 bf ae 98 e1 bf 4a e1 57 3f
       -0.35594523 -1.7812477 -1.7624719 0.8432814
000290 d4 8f 65 bf 4c 26 14 3f ee f3 6d 3e f3 6b ad bf
       -0.8967259 0.57870936 0.23237583 -1.3548568
0002a0 f9 a3 d8 3e 46 1b 35 bf 24 bf 5d c0 b2 7b 10 3d
       0.423126 -0.7074474 -3.4647913 0.035274215
0002b0 03 4b 32 bf 51 33 ad 3e 95 5f e8 be 04 56 b4 bd
       -0.6964571 0.33828214 -0.45385423 -0.08805469
0002c0 46 82 24 3f 5e 06 41 c0 25 10 23 bf 3f b9 ad 3e
       0.6426128 -3.0160136 -0.6369651 0.33930394
0002d0 38 e5 22 be 36 fa 93 3d 72 71 55 3d f6 bc 91 c0
       -0.15907753 0.07225458 0.052110143 -4.5543165
0002e0 aa a7 ae 3f 72 c5 0c c0 a7 58 fb bf b0 8e c8 3c
       1.3644917 -2.199551 -1.963643 0.024482101
0002f0 6f 5b 31 3f 96 48 03 c0 1c 3a 29 3e 1e 05 f4 bf
       0.6928014 -2.0513053 0.16526073 -1.9064062
000300 a8 ee 0c 3f 78 24 06 3c 0b 88 aa 3e 9e e3 df be
       0.5505166 0.008187406 0.33306918 -0.43728346
000310 2c dd 26 c0 b3 85 53 3f 82 eb a1 bd 05 2d 39 c0
       -2.6072493 0.82625884 -0.07906248 -2.8933728
000320 64 fe 01 be 69 22 4d 3e c8 10 36 c0 8f e5 20 bf
       -0.12694699 0.20032658 -2.8447742 -0.6285028
000330 7c 85 05 3f 25 b6 6d 3e f5 c4 14 3e 82 af 95 bf
       0.52156806 0.23214014 0.14528258 -1.1694186
000340 9e 80 8e 3e cf c1 03 c0 39 46 9f 3e 67 04 17 bf
       0.27832502 -2.0587041 0.31108263 -0.5899109
000350 b6 f1 9f 3d 5b 15 73 c0 d3 93 31 3e 35 84 49 be
       0.078097746 -3.7981784 0.17341547 -0.19679339
000360 27 04 f8 bf ad 63 43 3e 07 cf 10 3f 04 45 ed 3e
       -1.9376267 0.19080992 0.565659 0.46341717
000370 28 92 0d c0 28 a0 84 3e 56 ec 00 bb 7a 61 6b bf
       -2.2120457 0.2590344 -0.0019672117 -0.9194561
000380 48 38 3c 3e 01 4b 13 c0 ae e2 a2 3d 9c 2a 87 3f
       0.18380845 -2.3014529 0.07953392 1.0559878
000390 db f9 86 c0 1c 5c 46 be 35 02 90 3e c0 fd 24 c0
       -4.218 -0.19371074 0.28126684 -2.5779877
0003a0 de 4c 91 3e ec 44 97 bf c8 8e 3d 3f b0 f0 cc 3e
       0.28378958 -1.1817908 0.7404599 0.4002738
0003b0 92 39 90 bf 2e 55 22 c0 c5 f3 ac bb 04 26 db bf
       -1.1267569 -2.536449 -0.005278083 -1.7120976
0003c0 84 bf 7c 3d 17 d8 59 3e 82 d6 3d bd e8 23 6b bf
       0.06170608 0.21273838 -0.04634715 -0.91851664
0003d0 3c 92 24 3f 53 67 8a c0 42 3f 8d be 5c af 9e bf
       0.64285636 -4.325113 -0.27587324 -1.2397265

l3.bias f4 [31]
000000 79 e9 c0 3e 87 62 18 3d a7 3f 3c be be dc 26 be
       0.37678126 0.037203338 -0.18383656 -0.16295144
000010 9c 90 90 be 7e a7 19 bf cb 84 c5 be 53 39 aa be
       -0.28235328 -0.600212 -0.38577875 -0.3324686
000020 5c 54 04 be 7e 39 dc be 90 72 33 be ab 19 87 be
       -0.12922806 -0.43012613 -0.17524171 -0.2638677
000030 cf ba 13 3d 67 ce c7 bd 3d ed 54 be 43 2f 1f 3d
       0.036066826 -0.09756165 -0.20793624 0.03886343
000040 dd 27 ca bc 3e fd 7d 3e 73 9f 0e bb 7d c3 04 be
       -0.024677211 0.24803635 -0.002176252 -0.12965198
000050 ef f7 57 3e a2 eb 3e 3e 40 ae 75 3e 2a ce 56 be
       0.21090673 0.18644574 0.23992252 -0.20977083
000060 0d 9f 42 3f 34 d5 92 be 15 32 23 bf fe 02 eb 3d
       0.7602394 -0.28678286 -0.63748294 0.1147518
000070 e2 67 ba 3e c0 92 1f 3d 48 af 61 3d
       0.3640738 0.03895831 0.0550988
